…
Compiling and training the model for multiple GPU
vit is surely working
Model: "model_1"
__________________________________________________________________________________________________
 Layer (type)                Output Shape                 Param #   Connected to                  
==================================================================================================
 input_data (InputLayer)     [(None, 3, 496, 496)]        0         []                            
                                                                                                  
 permute (Permute)           (None, 496, 496, 3)          0         ['input_data[0][0]']          
                                                                                                  
 lambda (Lambda)             (None, 224, 224, 3)          0         ['permute[0][0]']             
                                                                                                  
 model (Functional)          (None, 197, 768)             8579865   ['lambda[0][0]']              
                                                          6                                       
                                                                                                  
 lambda_1 (Lambda)           (None, 196, 768)             0         ['model[0][0]']               
                                                                                                  
 reshape_1 (Reshape)         (None, 14, 14, 768)          0         ['lambda_1[0][0]']            
                                                                                                  
 conv2d_transpose (Conv2DTr  (None, 28, 28, 256)          1769728   ['reshape_1[0][0]']           
 anspose)                                                                                         
                                                                                                  
 conv2d_transpose_1 (Conv2D  (None, 56, 56, 128)          295040    ['conv2d_transpose[0][0]']    
 Transpose)                                                                                       
                                                                                                  
 conv2d_transpose_2 (Conv2D  (None, 112, 112, 64)         73792     ['conv2d_transpose_1[0][0]']  
 Transpose)                                                                                       
                                                                                                  
 conv2d_transpose_3 (Conv2D  (None, 224, 224, 32)         18464     ['conv2d_transpose_2[0][0]']  
 Transpose)                                                                                       
                                                                                                  
 lambda_2 (Lambda)           (None, 432, 432, 32)         0         ['conv2d_transpose_3[0][0]']  
                                                                                                  
 permute_1 (Permute)         (None, 32, 432, 432)         0         ['lambda_2[0][0]']            
                                                                                                  
 conv2d (Conv2D)             (None, 1, 432, 432)          289       ['permute_1[0][0]']           
                                                                                                  
 conv2d_1 (Conv2D)           (None, 1, 432, 432)          289       ['permute_1[0][0]']           
                                                                                                  
 conv2d_2 (Conv2D)           (None, 1, 432, 432)          289       ['permute_1[0][0]']           
                                                                                                  
 act_b1 (Lambda)             (None, 1, 432, 432)          0         ['conv2d[0][0]']              
                                                                                                  
 act_b2 (Lambda)             (None, 1, 432, 432)          0         ['conv2d_1[0][0]']            
                                                                                                  
 act_b3 (Lambda)             (None, 1, 432, 432)          0         ['conv2d_2[0][0]']            
                                                                                                  
==================================================================================================
Total params: 87956547 (335.53 MB)
Trainable params: 87956547 (335.53 MB)
Non-trainable params: 0 (0.00 Byte)
__________________________________________________________________________________________________
…
